checkpoint.pth (torch_old, 28423 bytes, 6 tensors)

fc1.weight f4 [64, 37]
000000 57 f0 25 bc fc 07 3f 3d 24 17 d2 bd a7 eb b9 be
       -0.010128102 0.046638474 -0.1025832 -0.363126
000010 92 29 5a bc a5 2d 10 3e db 49 20 be 70 06 52 3d
       -0.013315575 0.14079912 -0.15653174 0.05127567
000020 59 80 bb bd e5 44 7a be 30 df b9 3d 3d 21 c2 bd
       -0.0915534 -0.24440344 0.09075773 -0.09478996
000030 51 44 41 be fa 6b c5 be 47 3a a9 be 07 47 0c 3e
       -0.18873717 -0.38558942 -0.33052275 0.1369897
000040 0c 60 90 3d 0d ed f1 bd 32 14 6a bd 8f 08 ab bd
       0.070495695 -0.11812792 -0.057148166 -0.08351242
000050 7e 1d 1e 3e b1 e6 3d 3e 02 cf a4 bd b3 65 03 bd
       0.15440938 0.18545033 -0.08047296 -0.03207941
000060 2d da 5f bc 77 71 1d bc 37 80 01 3e be f8 42 bd
       -0.013662857 -0.009609572 0.12646566 -0.0476005
000070 ae fd 9b be 85 2f 44 bd 32 d1 36 be 63 08 18 3e
       -0.3046698 -0.04789688 -0.17853239 0.1484695
000080 22 56 68 3e ba 33 3a be 58 e3 c3 bc 00 0a 0a bd
       0.22689107 -0.18183795 -0.023912117 -0.033700943
000090 76 73 0b bb e1 da 22 3e 41 54 cd 3d f8 7e 95 3d
       -0.0021278537 0.15903808 0.10025836 0.07299608
0000a0 29 64 15 bc ea bd 72 be fb 23 1b 3e 7a b4 8e be
       -0.009118118 -0.23705259 0.15150444 -0.27872068
0000b0 12 0e e8 bd 9f 97 bd bd 19 08 d2 be 31 a5 53 3d
       -0.11330809 -0.09257435 -0.41021803 0.05167121
0000c0 2b bd 5e bc b0 d4 45 3d f8 cc 16 3e ae b8 9d 3e
       -0.013594906 0.048298538 0.14726627 0.30804962
0000d0 32 58 00 3c b9 94 7f 3a f4 43 ef 3d 95 a9 4a 3e
       0.007833527 0.00097496394 0.11682883 0.19791253
0000e0 40 90 2f 3e 10 03 bd bd 67 55 2b bd 76 73 d4 bd
       0.17144871 -0.092291 -0.041829493 -0.10373585
0000f0 51 b4 ab bb 49 c4 11 bd 39 2b 2b 3c 77 7a 1d 3e
       -0.0052400013 -0.035587583 0.010447317 0.15378748
000100 0f 51 94 bd 3c 23 c7 bd 6c 11 00 be b9 a3 57 3d
       -0.07242023 -0.09723517 -0.12506646 0.052646372
000110 a7 79 12 3e 43 4f e1 3d a7 19 96 3d 8c 88 8c 3e
       0.14304219 0.11001446 0.073291115 0.27447927
000120 aa 4f a4 3d 2c 7a 9d 3d 77 a7 8d 3d e2 a4 1a 3e
       0.08023007 0.07689318 0.06916707 0.1510196
000130 65 9c 85 3d dd 30 18 3d 77 d8 d8 3d 25 ce 44 bf
       0.065239705 0.037155975 0.105881624 -0.7687705
000140 27 20 ab 3e 39 8d 07 3e 37 21 26 be 2f 25 d0 bd
       0.33422968 0.13237466 -0.16223608 -0.10163342
000150 91 5d 09 3e 47 34 53 bd 5b d4 e7 bc b8 96 c5 bd
       0.13414599 -0.051563527 -0.028299501 -0.09647888
000160 01 6e c3 bd fa 8d 8e be 9c 0a 4a 3e 99 05 30 3e
       -0.09542466 -0.27842695 0.1973061 0.17189635
000170 07 96 94 3d aa 52 15 3e 87 5d 2b be 57 f2 f1 bc
       0.07255178 0.14582315 -0.16734897 -0.029534502
000180 e5 4d 38 bd ee 2c e0 3d 40 24 13 3e 7e 66 13 bf
       -0.04499616 0.1094607 0.14369297 -0.57578266
000190 7b 9a 42 3e df 04 91 3e 39 59 75 3c e8 60 b5 be
       0.19004242 0.2832403 0.014974886 -0.35425496
0001a0 f0 8f 08 be 7f 50 88 3d 15 38 61 bd c1 61 6b be
       -0.13336158 0.066559784 -0.054985125 -0.22986509
0001b0 65 4b c7 3d e8 e6 8c bc 40 83 31 3c 84 1f f3 3c
       0.09731177 -0.017199948 0.010834515 0.029678114
0001c0 56 1f b6 be 52 2d 89 3e 10 25 d9 3d 11 ba 86 be
       -0.35570782 0.2679239 0.10602772 -0.26313832
0001d0 78 0b 12 3d e1 9d 8d be 66 90 e7 3d 27 1c ef bd
       0.03565547 -0.27659515 0.11306839 -0.116752915
0001e0 23 37 6d be 79 84 bb 3d f0 be de bd 9c 41 e4 3d
       -0.23165564 0.091561265 -0.10876262 0.111453265
0001f0 1b 62 6c be 0d e1 25 be 77 7f a9 bb c4 82 5d be
       -0.230843 -0.16199131 -0.0051726657 -0.21631914
000200 a1 ca 05 3c 67 77 92 be cb 20 ad be f5 e5 07 3e
       0.008165986 -0.28606722 -0.33814082 0.13271315
000210 20 d8 a8 bd 8c 4a 7a 3d 19 22 7c 3c 7e f4 0b be
       -0.082443476 0.06110625 0.015388989 -0.13667485
000220 d3 6c 69 bd 81 87 43 bd 9b 51 7c 3e b5 be cc bd
       -0.05698855 -0.04773665 0.24640505 -0.09997312
000230 3a 29 e3 bc f3 63 81 3e 26 4f 07 3e a2 d7 b2 bd
       -0.02772962 0.25271568 0.13213786 -0.08732535
000240 dd 98 cd be 73 d9 5f bf e3 d3 c3 3b 40 bd 56 bb
       -0.40155688 -0.87441176 0.0059761866 -0.003276661
000250 68 ed a4 bc 24 04 37 be 62 d4 e3 bd d5 5c 5d be
       -0.020132735 -0.17872673 -0.11124493 -0.21617444
000260 88 61 98 bd 88 75 2e bc 85 e4 9a 3e cf 98 8b bd
       -0.074404776 -0.010648139 0.30252472 -0.06816255
000270 96 6c 1f be 43 2a f8 bd 36 dc 52 3d e2 66 92 bc
       -0.15568766 -0.12117436 0.05147954 -0.017871324
000280 da ac 8b bd 6b f0 92 be fc b5 4e be f5 34 05 3e
       -0.06820078 -0.2869905 -0.20186609 0.13008483
000290 46 e3 b6 bd 4a 66 60 be 6a 2d 0f be 81 fc 4d 3c
       -0.08930068 -0.2191402 -0.13982168 0.012572409
0002a0 fb d8 5b 3d 62 58 c9 3b f6 5a e5 bc 65 e2 88 be
       0.053673726 0.0061445693 -0.027997475 -0.26735225
0002b0 1a 25 a4 be 40 7e 79 3e 66 e4 9a bd ee f0 10 be
       -0.32059556 0.24364567 -0.07563095 -0.14154407
0002c0 1f 05 82 be 2a 49 e0 be 9e 61 6d 3e 7a 1b 48 be
       -0.25394532 -0.4380582 0.23181769 -0.19541731
0002d0 c3 65 49 3d c5 73 43 be ad 6d 86 bc 23 56 71 3b
       0.049169313 -0.19087131 -0.01640972 0.0036825023
0002e0 08 2a 46 3b cf 11 ac 3c 18 2a ae bd 74 3f 18 3d
       0.0030237455 0.021004586 -0.085041225 0.03716989
0002f0 c7 d6 65 3d 16 f2 2a 3e b7 e2 2c 3e 2c 45 a5 3e
       0.05611303 0.16693911 0.1688336 0.32279336
000300 2e 8b c5 bd b1 bd 66 be 93 e1 19 bf 01 f4 e5 bd
       -0.09645687 -0.22533299 -0.60109824 -0.11228181
000310 cc 7c 56 3d 27 b9 c8 bc 1e d7 90 bd ff 58 06 3e
       0.05236511 -0.02450235 -0.0707228 0.13119887
000320 e7 03 9f bd 0e 3c 39 3e cf c6 83 bd 9e c4 2d 39
       -0.07764416 0.18089315 -0.06434404 0.00016571811
000330 a8 62 27 bd 56 5a 1e 3e 1f 8e 00 bd 72 96 fb 3d
       -0.04086557 0.15464148 -0.031385537 0.122845545
000340 3b 68 b1 3c 23 87 4d bd d4 5d 24 3d 2c a6 ff bd
       0.021656146 -0.050177705 0.040128544 -0.12482867
000350 df 72 9e 3d 07 40 ca 3d 1b 63 42 3e 61 b7 ab 3c
       0.07736754 0.098754935 0.18983118 0.020961465
000360 3c 72 86 bd 34 98 29 bd a1 74 4b 3e dd 89 cb be
       -0.06564757 -0.041404918 0.19868709 -0.3975362
000370 20 6a 3d bc b6 8b 0b 3c b5 7c 2a be c9 bf 59 3d
       -0.011560947 0.008517196 -0.16649134 0.053161416
000380 7c db 95 bd e9 b8 3e bd a4 04 86 bd 48 17 6c be
       -0.07317254 -0.046563063 -0.06543854 -0.23055756
000390 11 67 98 bd 4c af 85 3a 9d ff c0 3c 57 15 b9 3e
       -0.07441533 0.0010199337 0.023559386 0.36149094
0003a0 aa f5 43 3c 0b 18 13 be 30 f9 88 3d d4 e4 1e 3e
       0.011960426 -0.1436464 0.06688154 0.15516979
0003b0 b5 ba 8d 3e 21 da 02 be d1 03 f4 3b 8d 6b b8 bd
       0.2768151 -0.12778522 0.007446744 -0.09004889
0003c0 06 11 11 bc b2 15 84 3c 57 d7 dd bd 07 4d 04 be
       -0.008854156 0.016123626 -0.108320884 -0.12920009
0003d0 a1 d6 83 bb d0 d7 1d bc 0f 50 9a 3e c5 45 51 be
       -0.0040233885 -0.009633973 0.30139205 -0.20436771
0003e0 24 ff 3a be 23 ea 0d 3d 56 06 ca bc bc 3b 06 3e
       -0.18261391 0.03464712 -0.024661224 0.13108724
0003f0 2e f0 3d 3c fb 27 67 be 43 a0 5e bc bf bb 00 3e
       0.011592908 -0.22573845 -0.013588014 0.1257162

fc1.bias f4 [64]
000000 1f 50 e4 3d 16 de c8 3a dd 1a 42 be 97 f0 3b bd
       0.111480944 0.0015324976 -0.1895556 -0.04588374
000010 ea 62 4c 3e 8c b7 28 bc 45 32 1f be a5 64 76 3d
       0.19959608 -0.010297667 -0.1554652 0.060154576
000020 9b 98 3c 3d ab 72 45 be a3 67 36 3e 42 92 44 3e
       0.046043973 -0.19282024 0.17812972 0.19196418
000030 5d c4 93 3e da 14 54 3e d8 cf f8 bd 5d 25 a3 3c
       0.2886075 0.20711079 -0.12149018 0.019915277
000040 83 fb 93 3d 15 6f a5 3c 54 cc af 3c e8 ee 12 be
       0.072257064 0.02019457 0.021459736 -0.14348948
000050 42 82 20 be de 27 6c 3d af 1c 2a 3c 15 73 dd bd
       -0.1567469 0.057655208 0.010382815 -0.10812966
000060 e9 62 17 be 47 35 de 3d ce f8 a7 bd 39 09 4d be
       -0.14783825 0.108500056 -0.082017526 -0.2002305
000070 2e a4 24 3e 38 ca 17 3e 1c 2d 07 bd cf 6e 5b be
       0.16078255 0.14823234 -0.033002004 -0.21428989
000080 81 14 22 3e 76 c3 14 bd 32 03 c0 bd 2a a3 a9 3d
       0.15828134 -0.03631922 -0.093756095 0.08283074
000090 46 5f 03 bd 10 7c 50 bd 16 e2 0f bd a1 ad 8c bd
       -0.03207328 -0.050899565 -0.03512772 -0.068690546
0000a0 b0 0d 2f bd 97 c9 d1 3c 4c b1 2c be ca 22 d1 3d
       -0.042737663 0.02560882 -0.16864508 0.102117136
0000b0 bd bb 53 3c 19 78 9c bd 2c d0 bc 3d 6c 9b 17 be
       0.012923178 -0.07640094 0.09219393 -0.14805382
0000c0 da 8d 1f be 2e 9c 00 bd e2 6e 34 be 8a a0 e2 3d
       -0.15581456 -0.031398945 -0.17620423 0.11065777
0000d0 b5 8f 2d 3c 5f cb 59 bd 54 7f 22 be 63 9e 10 3d
       0.010593344 -0.053172465 -0.15868884 0.0353073
0000e0 5f a6 b8 3d 50 e8 e5 bd 93 3f 95 bd 81 23 00 be
       0.09016108 -0.11225951 -0.072875164 -0.12513544
0000f0 f9 5c 16 3c 76 10 b4 3d d1 21 a6 3d bf a4 a4 3d
       0.00917744 0.08792202 0.08111919 0.08039235

fc2.weight f4 [64, 64]
000000 3e 32 fd 3c 93 af 89 bc 27 c7 06 3e 10 87 13 3e
       0.030907746 -0.016807353 0.13161908 0.14406991
000010 81 b3 6f 3e a8 ac 82 be 1b cc 9a bd ce b6 96 39
       0.23408319 -0.2552235 -0.07558461 0.0002874643
000020 f0 26 87 bc 82 99 23 3e a2 02 07 3d 69 9b 64 be
       -0.016498059 0.15976527 0.032961495 -0.2232491
000030 11 29 e9 bc 88 1e 4c 3b cb ab 54 be d1 21 8b be
       -0.028461965 0.0031146128 -0.20768659 -0.27174237
000040 0a 03 3c be c9 72 e2 be 96 a9 95 3d ee 3c 8e 3b
       -0.18360534 -0.442282 0.073077366 0.0043407595
000050 cb 84 82 bd f5 3e 6c bd ba 0a da 3e 81 f0 35 be
       -0.063729845 -0.057677228 0.4258631 -0.17767526
000060 d4 14 04 be 03 1c 4f bd 86 77 3b 3e 4d c2 8d 3d
       -0.1289857 -0.050563823 0.18307313 0.069218256
000070 77 13 da bc 53 db 05 be 4c f5 5e be 61 5a ba 3d
       -0.02662061 -0.13071947 -0.21773261 0.0909927
000080 90 03 b7 3d e4 9d 73 3d 72 c3 9f bc e1 44 69 bd
       0.08936226 0.059476748 -0.019502375 -0.056950454
000090 fe 29 7d be e9 ac 73 3e 05 a8 d6 3d 72 48 07 3d
       -0.2472305 0.23796429 0.10481266 0.033028074
0000a0 e9 b9 4e be 06 68 56 bd 6d 97 a8 3e 05 6d 8e bd
       -0.20188107 -0.0523453 0.3292803 -0.069543876
0000b0 61 3d e9 bd 57 80 91 be 31 0b 80 be 5a 84 98 3d
       -0.1138866 -0.28418228 -0.25008538 0.07447119
0000c0 72 af 93 bb 85 3a c7 3c a7 07 09 3c e0 72 22 be
       -0.0045069987 0.024319896 0.008363641 -0.15864134
0000d0 79 ab e0 ba 85 94 2e 3f 70 70 30 bd 8b 73 a4 3d
       -0.0017140947 0.6819537 -0.04307598 0.080298506
0000e0 d9 c9 dc be 8f 9b 63 bd 13 e2 b0 be 8a 60 b2 bc
       -0.43122748 -0.055568274 -0.3454748 -0.021774549
0000f0 12 57 a7 3d 10 8d 25 3d 2c ee ce be 61 88 da bd
       0.08170904 0.04041773 -0.40416086 -0.106705435
000100 e2 4b ec 3c 2a 36 ae 3d 6a 85 ae bd e5 1a 82 3d
       0.028844777 0.08506425 -0.085215405 0.06352786
000110 12 cc b3 3d 29 a7 02 3e b8 11 51 bc ff 36 af bc
       0.08779158 0.12759079 -0.012760572 -0.021388529
000120 f6 5f d6 bd d8 47 9e be 5e 89 13 3c a1 c9 bd 3e
       -0.10467522 -0.30914187 0.009004919 0.37067893
000130 8b 3f 25 be d0 6c 80 3d c9 72 92 3a a7 6c 00 3e
       -0.16137521 0.06270754 0.0011173125 0.12541448
000140 8c 5c b1 3d 9f 20 94 be c9 a2 05 be 13 8f 24 be
       0.0866023 -0.28931138 -0.13050379 -0.16070203
000150 33 22 f2 3d 20 3f 8d bd 60 a4 1d bc cd 19 76 3d
       0.11822929 -0.06896806 -0.00962171 0.0600832
000160 ab b5 12 bd b2 be d3 bd 72 bf 42 be 67 ef 9c bd
       -0.035817783 -0.103391066 -0.19018343 -0.0766285
000170 e8 76 e5 3d 88 fb 7d bd 04 f9 50 bd 9b d5 97 bd
       0.1120432 -0.062007457 -0.05101873 -0.07413789
000180 62 13 a7 be 8d 55 34 bd db 61 56 be 13 05 5c 3d
       -0.32631975 -0.0440269 -0.20935766 0.053715777
000190 ba 59 0d be 33 d0 9b 3d 15 44 39 be 6e 28 bf bd
       -0.13803759 0.0760807 -0.18092377 -0.09333883
0001a0 ef 53 4e be b8 a9 41 3e 9d 53 26 3e 04 d4 96 bd
       -0.20149206 0.18912399 0.16242833 -0.073646575
0001b0 6f 28 9c 3c d7 db a4 bd 95 34 38 be ac 49 f4 bc
       0.019062249 -0.080497436 -0.17988808 -0.029820286
0001c0 b4 a1 58 be 79 0c 9d 3d 12 bb d8 bd f7 a6 05 3e
       -0.21155435 0.076683946 -0.10582556 0.13051973
0001d0 a8 60 bf bd 68 b5 3b bd f4 61 cb 3d ac 65 ea bd
       -0.093446076 -0.0458273 0.099307925 -0.114451736
0001e0 5a 56 2b be 91 2a 0f be f0 4a 68 3e 8d b3 a4 bd
       -0.1673216 -0.13981082 0.22684836 -0.08042059
0001f0 83 5c 9e be bf 00 48 3d 32 ff ba bc 31 f1 28 be
       -0.30929956 0.048828837 -0.022826765 -0.16498257
000200 e1 e6 18 3e b6 30 3e be f3 bf 39 3e 39 89 61 bd
       0.14931823 -0.18573269 0.18139629 -0.055062506
000210 53 e6 e3 3c 04 ac 7e 38 ef c0 ad 3c 80 f2 e3 bd
       0.027819788 6.071852e-05 0.021210162 -0.111302376
000220 9b c9 2a 3d 40 22 13 be 40 5d c2 3d ea 62 b2 bd
       0.041696172 -0.14368534 0.09490442 -0.087102726
000230 4f 13 b4 3d 07 5e 9e 3d 21 71 57 bd 02 7b 96 3d
       0.08792745 0.07732778 -0.052598123 0.07347681
000240 58 95 4c be c6 80 88 bd ff 47 f9 3b 3c d0 b0 3d
       -0.19978845 -0.066651866 0.0076074596 0.086334676
000250 84 5f 37 be c6 46 f4 bd e5 af 7e be ab 0f 6e bd
       -0.1790753 -0.119275615 -0.24871786 -0.05812041
000260 79 35 1b be 12 31 34 be a8 d9 98 3e 56 95 4d be
       -0.15157117 -0.17596844 0.2985356 -0.20076498
000270 34 ec e0 bd 8d 93 a7 bd 98 be 67 be f8 b8 8a be
       -0.10982552 -0.0818244 -0.226313 -0.27094245
000280 42 b1 0b be 69 16 11 be 6a 20 d0 bd b8 19 40 3c
       -0.13641837 -0.14168705 -0.101624325 0.011724882
000290 e0 d7 77 3e b9 a3 02 be bc 56 38 3e c1 1f a8 bd
       0.24203444 -0.12757768 0.18001837 -0.082091816
0002a0 93 cd 4f 3e 20 73 83 be 47 e9 cf bd 2a 7d 05 be
       0.20293264 -0.2567377 -0.10151916 -0.13036028
0002b0 b1 5e 97 be de b5 5f 3d 66 7f 22 3e 8b ed ca be
       -0.2956443 0.0546168 0.15868911 -0.39634356
0002c0 42 e6 81 be 10 d3 bf bd bb f5 99 bd 49 04 de 3d
       -0.25370985 -0.09366429 -0.075175725 0.10840661
0002d0 7d d7 32 bf ff f4 8f be 20 e4 80 bd 14 c6 29 3e
       -0.6986006 -0.28116605 -0.062935114 0.16579467
0002e0 92 71 d2 bd f1 ed 31 be 7a 24 77 3e 1f 28 d8 3d
       -0.10275568 -0.17375924 0.24135008 0.105545275
0002f0 f2 99 43 3d 16 1f 79 be ee b8 17 3d 69 ab 2e bb
       0.047754236 -0.24328265 0.037041597 -0.0026652461
000300 27 81 7d bd 00 24 e9 bd 35 8a 9c 3c 43 8e 2d 3d
       -0.061890747 -0.113838196 0.019108871 0.042372
000310 26 be 95 bd 9c 6d 1a 3c 74 a5 49 be 5c b7 b5 bd
       -0.073116586 0.009425547 -0.19692022 -0.08872864
000320 d0 b4 a3 bc 15 d8 3d 3c a4 67 1f be 89 c3 93 be
       -0.019983679 0.0115871625 -0.1556688 -0.2886012
000330 51 51 44 3c da 28 3b bc 82 c0 01 bd f2 40 ee bd
       0.011982278 -0.011423314 -0.03167773 -0.11633481
000340 d6 2b 28 be e6 19 92 be 67 1d 47 bd 3e 52 f3 bd
       -0.16422972 -0.28535384 -0.048612025 -0.11880921
000350 d7 bf 24 3e db 4f cf bc 73 c2 7c bd ad 62 72 3c
       0.16088806 -0.025306633 -0.06170888 0.014794034
000360 77 9a 01 bd 79 86 88 3d 63 4a 89 3e 06 8d fe bb
       -0.03164145 0.066662736 0.26814565 -0.007768276
000370 d5 0a 98 3d 7f 8c ae be f7 34 3e be 54 4d 48 bd
       0.07423941 -0.34091565 -0.18574892 -0.04890187
000380 30 6e b4 bd d2 92 70 bd 0c 41 52 3d 3d b2 f2 3d
       -0.08810079 -0.05873377 0.051331565 0.118504025
000390 d4 de 51 be c8 70 16 3e a7 88 45 3f 3b 3a ab 3d
       -0.20495158 0.1469146 0.7716164 0.08360716
0003a0 ab 83 d1 be 4c 5a da bd f5 c5 b5 3e 3d 00 a6 bd
       -0.40920767 -0.10661754 0.35502592 -0.08105514
0003b0 15 ef 3e 3e 1f bc 52 3e 15 15 77 3d 9e 03 3b 3b
       0.1864589 0.20579575 0.06032284 0.0028536092
0003c0 f3 65 b1 3d f4 a8 df bd ab e9 1e be 05 61 93 bd
       0.086620234 -0.10920897 -0.15518825 -0.071962394
0003d0 ba 70 d6 3d 10 ca 84 be c2 d0 46 3e c6 e5 6c bc
       0.1047072 -0.2593541 0.19415572 -0.014459079
0003e0 76 54 59 be f9 79 27 be 64 96 c1 be 88 ce af bd
       -0.21223626 -0.16355123 -0.3781005 -0.085843146
0003f0 b5 d3 fb be 88 21 8a 3d 40 3a f7 3d a8 53 53 be
       -0.49184957 0.06744677 0.12071657 -0.20637381

fc2.bias f4 [64]
000000 de ff f4 ba 01 6d f9 bc 3f 0a 7a 3b 75 d1 94 3c
       -0.0018691977 -0.030447485 0.003815308 0.018166283
000010 a1 85 63 3e 0d 85 1c be 56 79 76 bc 3d ee 49 3d
       0.22218944 -0.1528513 -0.015043577 0.049299467
000020 fc b8 72 3e 49 33 c4 3e 7e 8d 85 bd be 1a 25 3e
       0.23703378 0.38320377 -0.06521128 0.16123483
000030 06 0f dd 3d 50 67 2b bd b3 96 d4 bd 71 77 18 3d
       0.10793881 -0.041846573 -0.10380306 0.037223283
000040 c6 11 f2 3d 2b 67 2e bd b4 28 76 bd 83 dd 01 3e
       0.11819796 -0.042578857 -0.06009741 0.12682156
000050 fa f1 07 3e 6f 24 e2 3e 24 aa 61 be 48 39 48 bd
       0.132759 0.44168422 -0.2203756 -0.048882753
000060 66 b3 b2 bd af 3d 34 be eb ac 56 3d c2 0e 74 bd
       -0.08725624 -0.17601655 0.052411 -0.059584387
000070 95 43 94 3d 56 8f 6e 3d 4f 02 6a 3d 43 64 d2 3d
       0.07239453 0.058242165 0.057131108 0.1027303
000080 62 af 9c bd 70 39 de 3d 4f 05 43 3a 82 96 a9 bd
       -0.07650639 0.10850799 0.0007439451 -0.0828066
000090 6f 5c 12 bd 75 74 ee bd da 21 a9 3c 5c a2 42 bc
       -0.035732683 -0.11643306 0.020646024 -0.01187953
0000a0 71 b0 15 be ee 51 da 3e 0d 05 a7 3e 1d 46 75 bd
       -0.14618088 0.42640632 0.3262104 -0.05988132
0000b0 0e 48 14 3d 5d ae 2a be 44 8d 89 3e 2d 76 eb bd
       0.03620153 -0.16668077 0.2686559 -0.114971496
0000c0 35 19 f1 3d 8a 81 ce bd 51 9c 7e bd a6 58 c4 3e
       0.11772386 -0.10083301 -0.062160794 0.38348883
0000d0 04 cf 21 3d f5 ed 1d be f6 4d d0 3d 39 a2 03 bd
       0.039504066 -0.15422805 0.1017112 -0.03213713
0000e0 0c 68 cf bd 11 14 2f be 33 58 21 3d b5 45 4c 3c
       -0.10127267 -0.17097498 0.039390754 0.012467791
0000f0 d5 e3 8a 3d a0 4e 1f 3e e4 ed 4d 3d fc 0b c3 bd
       0.06781737 0.15557337 0.0502757 -0.0952377

fc3.weight f4 [4, 64]
000000 04 28 d1 3e 2e 71 db 3d d1 87 5d 3e 7f ff 8c 3e
       0.40850842 0.10714947 0.21633841 0.27538678
000010 d2 8c 2f 3e 04 9f 92 3d f1 a8 83 3e 30 56 a2 be
       0.17143562 0.07159236 0.2571483 -0.3170638
000020 3d 0d fe 3d d1 aa fd 3d ee 64 cd 3c 76 88 46 3e
       0.12404869 0.12386096 0.025072541 0.19387993
000030 e6 b0 c5 3d 48 a8 d4 3d 69 b5 d5 bc ed f9 19 be
       0.09652881 0.103836596 -0.02608748 -0.15036745
000040 74 1f 0c 3e 8e 7b ad 3c 99 cd 36 3d dd 98 18 3e
       0.13683873 0.02117708 0.044629667 0.14902063
000050 95 8c 33 3d d1 c4 1b 3e 16 e3 23 be 91 f2 54 be
       0.04383524 0.15211798 -0.16004595 -0.20795657
000060 82 c1 02 3e 25 47 92 be 2c 90 4e be 4d 5a 9c 3e
       0.1276913 -0.28569904 -0.20172185 0.30537644
000070 62 ef b2 3e de 8a db 3e 8c c7 8d be ff 63 c2 3d
       0.3494826 0.42879385 -0.27691305 0.09491729
000080 16 11 11 3e 8f cd 93 3e 69 61 d5 3c 53 d2 93 be
       0.14166674 0.28867766 0.026047425 -0.28871402
000090 c7 ab ad 3e 3c 4e 80 be 04 ec 39 be 89 a9 37 3e
       0.33920118 -0.25059688 -0.18156439 0.17935766
0000a0 50 69 25 be dd 8b 0e 3e 39 f4 04 3e 83 98 17 3d
       -0.16153455 0.13920541 0.12983789 0.03701068
0000b0 07 d3 ca 3e 53 15 05 bd 19 e7 49 3e 50 90 aa 3e
       0.39614126 -0.03249104 0.19717063 0.33313227
0000c0 40 81 2a 3d 09 2a 83 3e 5b ed 3b 3e 8e bd 02 3e
       0.04162717 0.25618008 0.18352263 0.12767622
0000d0 5d ff a3 3e 75 97 59 be d9 07 0d 3e 41 d8 de 3c
       0.32030764 -0.21249183 0.13772525 0.027202727
0000e0 15 1c b3 be fc 29 18 be ab d4 4c be a9 d6 fb 3d
       -0.34982362 -0.14859766 -0.20003001 0.122968026
0000f0 c9 0f 28 3e 55 7c 18 3e d5 e8 54 3d 69 0b 0f 3e
       0.16412272 0.14891179 0.05197986 0.13969196
000100 11 31 95 3e 64 1e e9 3d 7e ab ac 3d 12 2c ab 3e
       0.29138997 0.1138275 0.08431147 0.3343206
000110 83 3a 43 3e ae f9 31 bd 61 2c 39 3e 56 22 38 bd
       0.19065289 -0.043451004 0.18083335 -0.04495462
000120 1e 2f 84 3d bd 33 fd 3d f3 f8 92 3d a1 cc 9e 3e
       0.064542994 0.12363384 0.071763895 0.31015494
000130 2f 11 bb 3d 88 f7 9c 3e b3 88 7b 3e 80 83 bd bd
       0.09134137 0.306576 0.24563865 -0.09253597
000140 b2 36 75 3d 6b cb 51 3e e0 b8 f1 be a1 0c 51 3e
       0.059866615 0.20487754 -0.4721136 0.20414974
000150 41 b0 05 3e 09 6e 52 3e 4e 22 5c be e2 17 52 be
       0.13055517 0.20549788 -0.21497461 -0.20516923
000160 77 73 91 3e 45 60 a0 be a2 8a 04 bd ca c0 c6 3e
       0.28408405 -0.31323448 -0.032358773 0.3881896
000170 2a 7b 92 3e b5 b4 e0 3e 0b 1a 51 be c1 fe 2b 3e
       0.28609592 0.4388787 -0.20420091 0.167964
000180 e5 27 05 3e b5 18 3f 3e 28 94 ca 3d 27 d9 73 be
       0.130035 0.18661769 0.0989154 -0.23813306
000190 c5 85 82 3e ad a1 87 be e0 52 d8 bb 2f 9d 67 3e
       0.25492683 -0.26490536 -0.0066016763 0.22618555
0001a0 ca 21 a3 3d 93 cb 0b 3e b3 a2 7b 3d c2 f5 48 3e
       0.07965429 0.13651876 0.06143446 0.19624999
0001b0 ce 69 08 3f a0 b1 c0 bd a7 cb 32 3e 23 4f 0b 3f
       0.53286445 -0.09408879 0.174605 0.5441763
0001c0 e0 fd f1 3d ee 6d a4 3e 71 02 9c 3e 5f be 0f 3d
       0.11816001 0.3211512 0.30470613 0.03509366
0001d0 b2 d8 b0 3e 1f d6 1e be ce af f7 3d 40 a5 b4 3d
       0.34540325 -0.15511368 0.12094079 0.088205814
0001e0 b5 bd 13 be 85 df a2 bd dc fa 2f 3d b3 ee 92 3d
       -0.14427836 -0.07952789 0.042963848 0.071744345
0001f0 85 12 43 be e2 6a 9a 3d e3 34 1b bd 48 7e 89 3e
       -0.19050033 0.075399175 -0.037892234 0.26854157
000200 72 01 b5 3e f5 ab c1 3e ad 05 4a be 41 16 fe 3e
       0.35352665 0.37826505 -0.19728728 0.49626353
000210 7e 90 ec 3d 2b b1 8c 3e 5f 90 86 3e 6d 23 aa bd
       0.11550997 0.27478918 0.2628202 -0.08307538
000220 71 e2 9b 3d f4 dc e2 3d 44 64 66 3c 01 49 f7 3e
       0.0761155 0.110773 0.014061991 0.48297885
000230 37 6b 21 3e 9a 39 f2 be f8 fa 09 bd c6 f7 18 3e
       0.15763555 -0.47309572 -0.033686608 0.14938268
000240 14 6a 37 3e 53 ec 0d be 70 96 b0 3e 9d 5e f7 3d
       0.1791156 -0.13859682 0.34489775 0.12078593
000250 84 b3 72 3c af da 66 3e 9c 6c 43 be 97 c5 a9 3d
       0.014813308 0.22544359 -0.190844 0.082896404
000260 f3 02 c6 3e 8a 39 24 be a6 3d 03 be 7a 8d 3a be
       0.38674125 -0.16037574 -0.12816486 -0.18218032
000270 40 17 5f 3e 98 53 3e 3f 16 8f 50 be 6e ad 17 3d
       0.21786213 0.74346304 -0.20367083 0.03703063
000280 f8 14 0f be c8 4a 0a 3e 45 2d 29 3e a5 65 da 3d
       -0.13972843 0.1350509 0.16521175 0.106639184
000290 f0 15 77 3d b7 b8 57 be d1 61 94 be ed 02 31 3e
       0.060323656 -0.21066557 -0.28980878 0.17286272
0002a0 a8 fd f4 be 30 29 1c 3e 99 e7 28 3e cf 99 8d be
       -0.47849774 0.15250087 0.16494597 -0.2765641
0002b0 6a 6f 43 3d 98 b1 33 3d eb 94 28 3e 81 89 1b 3f
       0.047713675 0.04387054 0.16463058 0.6075669
0002c0 ca ab 08 3e 11 fc cb 3e 1d 36 82 3e 7d b3 43 3e
       0.13346782 0.3984075 0.2543191 0.19111438
0002d0 95 d0 5b 3c e5 b2 d4 3c 64 75 2c 3e b7 4d c6 3d
       0.013416429 0.02596421 0.16841656 0.09682792
0002e0 91 9f 40 be 0b b6 37 be 5d 4d 8a 3e a8 96 bb 3d
       -0.1881087 -0.17940538 0.27012148 0.09159595
0002f0 c2 75 07 bf fd 45 97 3d a4 ea 59 be 0d 86 07 bc
       -0.5291406 0.07386396 -0.21280915 -0.008271706
000300 a3 a2 16 3f 32 14 81 3e 57 52 5e 3e 3f 3e 26 be
       0.58841914 0.2521072 0.21711098 -0.16234683
000310 59 8d e4 3d 79 de 6c be a7 21 4c 3e b6 80 a7 3d
       0.111597724 -0.23131742 0.19934712 0.081788465
000320 b4 3b d7 3d 13 c6 3e 3e 6a 3a 80 3e 03 87 98 be
       0.10509434 0.18630247 0.25044566 -0.29790506
000330 18 74 89 3e a6 39 0e be 37 f5 0a 3f 1c 06 3a 3b
       0.26846385 -0.13889179 0.5428042 0.002838499
000340 7e 81 38 3e a3 53 00 3f 99 5c 12 be ab e6 1d 3e
       0.18018147 0.5012762 -0.14293136 0.15420024
000350 0f 61 b3 3d 7c 62 4c 3e bc 70 3c be 20 34 55 3e
       0.08758747 0.19959444 -0.1840238 0.20820665
000360 80 4c 2d bd bd dc c3 be ce ff 1c bd 00 c9 9f 3e
       -0.042309284 -0.38254347 -0.03832989 0.31208038
000370 7e cf b3 3e 21 34 8e 3e f1 48 ae be d8 9f d3 3d
       0.3511924 0.27774146 -0.34040025 0.10333222
000380 83 5f 6c 3d de 0a 04 3e 37 b5 59 3d 88 42 bc be
       0.057708275 0.1289477 0.053151336 -0.3676951
000390 51 e6 09 bd a2 f6 52 be 1d 5d 86 3e ab 42 ad 3e
       -0.033666912 -0.20601895 0.26242915 0.33839926
0003a0 0d 17 83 be bb ed 3d 3e b2 82 ec 3d 72 95 c9 be
       -0.25603524 0.18547718 0.11548366 -0.3937183
0003b0 e6 ac ff 3e 1f ac 87 be 01 07 00 3e 31 5d f3 bb
       0.499366 -0.26498505 0.12502672 -0.0074268808
0003c0 c7 9e 86 bd 54 62 36 3e e0 a5 b6 3e c2 5f 1f 3e
       -0.06573253 0.17810947 0.35673428 0.15563872
0003d0 77 75 ce 3d 3e 8d 40 be b8 16 db 3d 23 0b 8e 3e
       0.100809984 -0.1880388 0.10697693 0.27742872
0003e0 6b a3 bf bd a7 94 86 be f0 5e c0 be 35 8d 55 bd
       -0.093573414 -0.26285288 -0.37572432 -0.05213662
0003f0 b4 26 20 be c4 89 85 3d 50 33 d4 bd 8d b2 36 3e
       -0.15639764 0.06520417 -0.103613496 0.17841549

fc3.bias f4 [4]
000000 87 14 98 3e 7a 9a 88 3e a6 d2 02 3e 29 ce 1a 3e
       0.2970316 0.26680356 0.12775669 0.15117706
